Digit-Classifier.pth (torch, 974316 bytes, 8 tensors)

layer1.weight f4 [256, 784]
000000 a5 f8 87 37 a4 f8 87 37 a4 f8 87 37 a5 f8 87 37
       1.6209038e-05 1.6209036e-05 1.6209036e-05 1.6209038e-05
000010 a4 f8 87 37 a4 f8 87 37 a5 f8 87 37 a4 f8 87 37
       1.6209036e-05 1.6209036e-05 1.6209038e-05 1.6209036e-05
000020 a4 f8 87 37 a5 f8 87 37 a4 f8 87 37 a4 f8 87 37
       1.6209036e-05 1.6209038e-05 1.6209036e-05 1.6209036e-05
000030 a4 f8 87 37 a4 f8 87 37 a4 f8 87 37 a4 f8 87 37
       1.6209036e-05 1.6209036e-05 1.6209036e-05 1.6209036e-05
000040 a4 f8 87 37 a4 f8 87 37 a4 f8 87 37 a5 f8 87 37
       1.6209036e-05 1.6209036e-05 1.6209036e-05 1.6209038e-05
000050 a5 f8 87 37 a4 f8 87 37 a5 f8 87 37 a4 f8 87 37
       1.6209038e-05 1.6209036e-05 1.6209038e-05 1.6209036e-05
000060 a5 f8 87 37 a5 f8 87 37 a5 f8 87 37 a5 f8 87 37
       1.6209038e-05 1.6209038e-05 1.6209038e-05 1.6209038e-05
000070 a5 f8 87 37 a5 f8 87 37 a4 f8 87 37 a4 f8 87 37
       1.6209038e-05 1.6209038e-05 1.6209036e-05 1.6209036e-05
000080 a5 f8 87 37 a5 f8 87 37 9c f8 87 37 8e f8 87 37
       1.6209038e-05 1.6209038e-05 1.6209022e-05 1.6208996e-05
000090 79 f8 87 37 f0 f7 87 37 96 f8 87 37 99 f8 87 37
       1.6208958e-05 1.6208709e-05 1.6209011e-05 1.6209016e-05
0000a0 45 f8 87 37 f7 f7 87 37 4e f8 87 37 9c f8 87 37
       1.6208864e-05 1.6208722e-05 1.620888e-05 1.6209022e-05
0000b0 48 f8 87 37 87 f8 87 37 de f8 87 37 79 f8 87 37
       1.6208869e-05 1.6208984e-05 1.6209142e-05 1.6208958e-05
0000c0 9b f5 87 37 dd e8 87 37 cc f1 87 37 a4 f8 87 37
       1.6207623e-05 1.620169e-05 1.620585e-05 1.6209036e-05
0000d0 a5 f8 87 37 a4 f8 87 37 a5 f8 87 37 a5 f8 87 37
       1.6209038e-05 1.6209036e-05 1.6209038e-05 1.6209038e-05
0000e0 a5 f8 87 37 a4 f8 87 37 a5 f8 87 37 a3 f8 87 37
       1.6209038e-05 1.6209036e-05 1.6209038e-05 1.6209035e-05
0000f0 a5 f8 87 37 a3 f8 87 37 a0 f8 87 37 92 f8 87 37
       1.6209038e-05 1.6209035e-05 1.620903e-05 1.6209004e-05
000100 53 f8 87 37 be ff 87 37 2f fc 87 37 2e fa 87 37
       1.6208889e-05 1.6212343e-05 1.6210686e-05 1.6209753e-05
000110 c1 00 88 37 fb 15 88 37 df 02 88 37 cb 10 88 37
       1.6212814e-05 1.6222699e-05 1.62138e-05 1.6220283e-05
000120 4f 10 88 37 cd 0e 88 37 34 fe 87 37 fb fd 87 37
       1.6220058e-05 1.6219356e-05 1.6211627e-05 1.6211523e-05
000130 5b fb 87 37 21 ef 87 37 18 ed 87 37 0e f9 87 37
       1.62103e-05 1.6204607e-05 1.620366e-05 1.620923e-05
000140 ac f8 87 37 a5 f8 87 37 a5 f8 87 37 a5 f8 87 37
       1.6209051e-05 1.6209038e-05 1.6209038e-05 1.6209038e-05
000150 a5 f8 87 37 a4 f8 87 37 a4 f8 87 37 9a f8 87 37
       1.6209038e-05 1.6209036e-05 1.6209036e-05 1.6209018e-05
000160 9b f8 87 37 96 f8 87 37 d0 fb 87 37 52 14 88 37
       1.620902e-05 1.6209011e-05 1.6210513e-05 1.6221926e-05
000170 2b 24 88 37 de c4 87 37 b8 f6 87 37 a9 15 88 37
       1.6229305e-05 1.6184928e-05 1.6208141e-05 1.622255e-05
000180 30 27 88 37 99 3f 88 37 33 95 89 37 d9 87 89 37
       1.6230711e-05 1.6242078e-05 1.6401149e-05 1.6394932e-05
000190 e7 52 89 37 ed 52 88 37 ac 6a 88 37 75 ba 88 37
       1.6370277e-05 1.6251079e-05 1.6262136e-05 1.629929e-05
0001a0 40 9f 8a 37 c7 81 89 37 fa 95 87 37 75 c8 87 37
       1.6525039e-05 1.6392105e-05 1.6163092e-05 1.61866e-05
0001b0 8e f3 87 37 e0 f8 87 37 b9 fb 87 37 a4 f8 87 37
       1.6206668e-05 1.6209146e-05 1.6210472e-05 1.6209036e-05
0001c0 a4 f8 87 37 a5 f8 87 37 a4 f8 87 37 ad fb 87 37
       1.6209036e-05 1.6209038e-05 1.6209036e-05 1.621045e-05
0001d0 20 02 88 37 ee 05 88 37 22 81 88 37 37 9c 88 37
       1.6213453e-05 1.6215225e-05 1.6272596e-05 1.6285207e-05
0001e0 73 57 88 37 a5 74 88 37 21 49 88 36 99 b9 5b 36
       1.6253185e-05 1.626678e-05 4.061629e-06 3.2741575e-06
0001f0 fa b5 df b6 2d 60 86 b7 1c 2e 8b b7 52 f0 e9 b6
       -6.6671028e-06 -1.601883e-05 -1.6591563e-05 -6.971918e-06
000200 e8 a2 73 36 fd c9 96 36 ee 90 90 37 98 6f 8e 37
       3.6304646e-06 4.493863e-06 1.7233626e-05 1.6979684e-05
000210 50 94 8c 37 70 66 8b 37 a6 e3 88 37 78 75 88 37
       1.6758364e-05 1.6617792e-05 1.631847e-05 1.6267164e-05
000220 e6 e1 87 37 d4 c3 87 37 50 d5 87 37 a4 f8 87 37
       1.6198446e-05 1.6184444e-05 1.6192585e-05 1.6209036e-05
000230 a5 f8 87 37 a5 f8 87 37 a4 f8 87 37 a5 f8 87 37
       1.6209038e-05 1.6209038e-05 1.6209036e-05 1.6209038e-05
000240 cf ff 87 37 d7 0f 8b 37 7d 8d 8a 37 e3 d8 70 37
       1.6212374e-05 1.6577467e-05 1.6516768e-05 1.4355613e-05
000250 71 8c fc 36 38 a9 1a b7 fd 57 7e b7 2b f9 79 b7
       7.526535e-06 -9.218515e-06 -1.5160066e-05 -1.48995705e-05
000260 0f cc 66 b7 c4 9d 7d b7 63 df 9a b7 03 a2 a3 b7
       -1.3756579e-05 -1.5116708e-05 -1.8462253e-05 -1.9506557e-05
000270 07 cd a3 b7 99 00 9b b7 02 23 cc b4 4d 22 6a 37
       -1.9526587e-05 -1.8477718e-05 -3.8023433e-07 1.3955473e-05
000280 cf a1 9c 37 0b ff 97 37 1f b4 8d 37 ae 6b 85 37
       1.8671997e-05 1.8119366e-05 1.6892385e-05 1.5904978e-05
000290 1f 91 83 37 a8 e8 84 37 51 f8 87 37 a4 f8 87 37
       1.5683994e-05 1.5843965e-05 1.6208885e-05 1.6209036e-05
0002a0 a4 f8 87 37 a5 f8 87 37 a5 f8 87 37 60 f5 87 37
       1.6209036e-05 1.6209038e-05 1.6209038e-05 1.6207516e-05
0002b0 08 e7 87 37 38 01 8c 37 19 30 b7 36 e7 1d 01 b7
       1.6200836e-05 1.6689868e-05 5.4594243e-06 -7.695961e-06
0002c0 99 d7 8c b7 83 bb 88 b7 16 69 86 b7 16 e4 80 b7
       -1.6789696e-05 -1.629978e-05 -1.602298e-05 -1.5365e-05
0002d0 5a 62 9d b7 26 c3 92 b7 8a 48 99 b7 05 57 a4 b7
       -1.8761657e-05 -1.749543e-05 -1.82728e-05 -1.9590845e-05
0002e0 32 05 a2 b7 26 94 a1 b7 10 64 a4 b7 49 d1 7f b7
       -1.9314324e-05 -1.9261683e-05 -1.9596919e-05 -1.5247912e-05
0002f0 81 ab 3c 37 6f 21 9c 37 a4 79 95 37 2f 37 83 37
       1.1245605e-05 1.8612218e-05 1.7818827e-05 1.5642114e-05
000300 fd a7 81 37 a4 86 81 37 24 f7 87 37 a4 f8 87 37
       1.5456224e-05 1.5440695e-05 1.6208338e-05 1.6209036e-05
000310 a5 f8 87 37 a5 f8 87 37 8f f8 87 37 bf 03 88 37
       1.6209038e-05 1.6209038e-05 1.6208998e-05 1.6214208e-05
000320 44 29 88 37 08 fa 37 37 0b 00 95 b7 23 81 8e b7
       1.623168e-05 1.0965865e-05 -1.7762204e-05 -1.6987853e-05
000330 74 94 8a b7 c1 4a 1e b7 1d 89 93 b6 96 4b 4d 37
       -1.652001e-05 -9.434939e-06 -4.3969035e-06 1.2236551e-05
000340 0e fa 95 37 39 f3 9b 37 f0 75 9c 37 62 3c ee 36
       1.7878625e-05 1.85907e-05 1.8651568e-05 7.099982e-06
000350 40 67 0b b7 34 50 97 b7 a9 84 a1 b7 18 47 9c b7
       -8.309085e-06 -1.803795e-05 -1.925447e-05 -1.8629755e-05
000360 fa d2 90 b7 d8 60 a3 36 1f 07 6f 37 d7 83 83 37
       -1.7264381e-05 4.8690526e-06 1.4247168e-05 1.567781e-05
000370 93 f2 82 37 ee 46 86 37 3b 09 88 37 a0 55 88 37
       1.5610165e-05 1.6007074e-05 1.6216762e-05 1.6252336e-05
000380 a5 f8 87 37 a6 f8 87 37 a7 f8 87 37 53 70 88 37
       1.6209038e-05 1.620904e-05 1.6209042e-05 1.6264768e-05
000390 f3 2e 6f 37 d2 b4 c9 b6 e0 fa 98 b7 9c f1 85 b7
       1.4256441e-05 -6.011317e-06 -1.8236635e-05 -1.5967344e-05
0003a0 92 e4 0a b7 55 93 5f 37 35 67 a0 37 24 df 9d 37
       -8.278659e-06 1.3326139e-05 1.9121546e-05 1.8819766e-05
0003b0 22 0a a2 37 2f 91 a3 37 1f 5a a6 37 0d bf a5 37
       1.9316623e-05 1.949872e-05 1.9830708e-05 1.9758498e-05
0003c0 a6 e9 89 37 25 20 0f 37 f3 aa 83 b7 d7 88 8f b7
       1.6440474e-05 8.530948e-06 -1.5696021e-05 -1.711065e-05
0003d0 ab d4 95 b7 8d 96 8a b7 c3 c5 1f b7 bb 31 73 36
       -1.7861215e-05 -1.6520988e-05 -9.5231835e-06 3.6238769e-06
0003e0 49 82 88 37 8a cc 88 37 9e c0 88 37 30 9f 88 37
       1.6273132e-05 1.630771e-05 1.6302158e-05 1.628659e-05
0003f0 a4 f8 87 37 a7 f8 87 37 2d f8 87 37 7f 19 89 37
       1.6209036e-05 1.6209042e-05 1.620882e-05 1.6343545e-05

layer1.bias f4 [256]
000000 a4 f8 87 b7 b9 8a 7a b8 48 d1 cc b5 f4 18 81 bb
       -1.6209036e-05 -5.973384e-05 -1.5260093e-06 -0.003939742
000010 e0 44 a9 b9 aa 99 f1 b7 48 34 63 a6 42 33 73 ba
       -0.00032285508 -2.8800994e-05 -7.88273e-16 -0.00092773524
000020 95 8a 82 b9 8b 6e cb 9d cf 23 da b0 de 54 60 a6
       -0.00024898784 -5.384795e-21 -1.5871765e-09 -7.783063e-16
000030 48 38 c9 ad f1 79 a7 b5 8e 91 42 b4 74 ba 7b ba
       -2.2876048e-11 -1.2477959e-06 -1.812061e-07 -0.0009602674
000040 0d 22 a6 b4 fc af 8d ba fa 31 5e bb 49 72 a2 bb
       -3.0944685e-07 -0.0010809894 -0.00339043 -0.0049574715
000050 58 2d 24 b8 2c 4f 42 b9 2f 4c 99 b7 0d e0 44 bb
       -3.9142877e-05 -0.00018530776 -1.8274497e-05 -0.0030040771
000060 be 2b 7d b7 d3 37 bf ba ed 18 85 b8 0a 4d 52 bb
       -1.509016e-05 -0.001458878 -6.346577e-05 -0.0032089376
000070 71 49 6a bb be 48 a4 ac 51 6c ff aa bd 3b ac a4
       -0.003574934 -4.6692364e-12 -4.537226e-13 -7.469431e-17
000080 09 5d 3f b5 24 9f 55 ba bf 53 2f bb a0 70 c3 aa
       -7.128843e-07 -0.0008149019 -0.0026752797 -3.4717108e-13
000090 ba 55 e8 b4 f0 05 ed 39 64 09 04 bc 86 21 92 b2
       -4.3275742e-07 0.00045208586 -0.0080588795 -1.7011882e-08
0000a0 70 18 35 b5 7c 71 c3 ba 60 e5 75 b5 40 8c a6 38
       -6.7463316e-07 -0.001491114 -9.1603397e-07 7.9416204e-05
0000b0 a2 7b e3 ba 31 a7 6b ad 61 ed 0a b7 d6 cf a0 bc
       -0.0017355571 -1.3395327e-11 -8.28071e-06 -0.019630354
0000c0 c0 50 d7 b9 24 88 2b ab d8 61 88 b4 49 f8 9f b9
       -0.0004106816 -6.0940337e-13 -2.5403165e-07 -0.0003051183
0000d0 21 6e c3 b3 14 65 aa bb 16 4a c2 b4 96 7a 90 b2
       -9.1004274e-08 -0.0052000377 -3.618922e-07 -1.6819552e-08
0000e0 11 d6 ce ba 1b 41 e8 b5 ec 0a 47 b9 9a 5e 4e ba
       -0.001578035 -1.7304295e-06 -0.00018982188 -0.0007872373
0000f0 27 cd e8 b9 d6 31 cf b1 4f e3 88 ba e8 b1 04 ba
       -0.0004440334 -6.0301586e-09 -0.001044372 -0.00050619105
000100 54 f5 05 bc ad 5d 9c 3a 1e 7c 29 ba 3e 61 59 b7
       -0.008176167 0.0011929773 -0.0006465333 -1.2956849e-05
000110 0a 1e 7b ab 63 e0 c8 bb 79 d8 04 b0 97 d8 bc b8
       -8.92148e-13 -0.0061302646 -4.8328946e-10 -9.0048816e-05
000120 d0 c2 3f ac 9d 36 d4 bc ec 27 3b b8 9c fd af ad
       -2.7250875e-12 -0.025904948 -4.4621454e-05 -2.0007822e-11
000130 ca bb 39 bb 27 6d 45 ba 9f a3 8c b6 30 60 52 b7
       -0.002834069 -0.00075312186 -4.191373e-06 -1.2539371e-05
000140 87 10 10 b7 4a 48 c3 b5 bc 4a 35 bc 19 40 bb b5
       -8.586917e-06 -1.4549671e-06 -0.011065181 -1.3951241e-06
000150 79 88 7f ba 92 4d e6 ba b3 22 b8 9c c7 f1 d2 b8
       -0.0009747814 -0.0017570725 -1.2185068e-21 -0.00010058615
000160 9a da 78 bb b9 05 2e b0 f4 92 37 b9 fb fc 17 b3
       -0.0037972094 -6.3308964e-10 -0.00017506984 -3.538751e-08
000170 4f 8e eb 39 2e 9d f5 bb 50 79 2b b4 f0 62 24 b9
       0.0004492872 -0.007495544 -1.5969749e-07 -0.00015677116
000180 70 ec 08 b8 fc 82 23 3b a0 3f 14 ad 50 36 ae 3b
       -3.2645126e-05 0.00249499 -8.426954e-12 0.005316533
000190 c0 a5 08 b2 67 fb 92 b9 d0 fc 52 b7 17 50 99 39
       -7.953929e-09 -0.000280346 -1.2575838e-05 0.00029242106
0001a0 b5 05 aa b6 e9 e5 32 b9 c4 b0 f4 8e ba 75 42 ba
       -5.067059e-06 -0.00017061051 -6.0320863e-30 -0.00074180553
0001b0 98 38 9c ba 89 0f e6 bb b0 b0 55 bc 95 71 bb b8
       -0.0011918722 -0.007020895 -0.013042614 -8.938011e-05
0001c0 2e 0d a9 af e2 9a 6d b9 7b de dd b8 13 d2 08 bc
       -3.0750286e-10 -0.0002265978 -0.000105795414 -0.008350867
0001d0 7d 74 fe b2 9f 62 82 b5 24 ef a4 ad 05 02 63 ab
       -2.9622464e-08 -9.714457e-07 -1.8750841e-11 -8.0649403e-13
0001e0 eb ae 3e b4 36 7c 0f b9 3e f9 a9 3b 42 03 26 b9
       -1.7758764e-07 -0.00013683815 0.0051871827 -0.00015832207
0001f0 66 93 1a b5 82 4a 02 ba fa c1 e9 3b 59 63 12 bc
       -5.7583964e-07 -0.0004970209 0.0071337195 -0.008934819
000200 b9 a7 4b b8 a2 41 04 b6 7f 11 98 3c d4 e4 e9 b3
       -4.8555175e-05 -1.9707736e-06 0.01856303 -1.08915316e-07
000210 3a 17 53 b6 ff 06 10 91 d4 a6 75 ab 8d 3c 2c b7
       -3.145497e-06 -1.1361753e-28 -8.7273006e-13 -1.0266097e-05
000220 a5 5e b8 ae 58 a6 1d bc b0 2d 99 3a 08 23 0a b8
       -8.3841635e-11 -0.009622179 0.001168659 -3.293439e-05
000230 72 d9 8b b9 d8 29 a1 bb 3c 1d 0d ba 2b 75 d1 b7
       -0.00026674155 -0.0049183182 -0.00053830794 -2.4969302e-05
000240 cc 7d 8d b9 24 f5 49 bb b9 10 20 b4 0f 29 ae bb
       -0.00026987342 -0.0030816281 -1.4907245e-07 -0.005314953
000250 8e f3 c0 b5 3c 33 82 b8 d9 04 2f ba 22 0d 4d ac
       -1.4375998e-06 -6.208426e-05 -0.00066764426 -2.9139542e-12
000260 6c 51 ad b7 3f af 1c a1 42 0c 79 ac e8 58 0a b7
       -2.0661122e-05 -5.308679e-19 -3.5391833e-12 -8.246141e-06
000270 9b 70 ba b7 1a 91 4e b8 64 fa 23 3b 20 9b 8e a8
       -2.2225364e-05 -4.9249364e-05 0.002502107 -1.5832442e-14
000280 c1 0f 14 ba 3c 28 e7 b9 aa 17 f8 ba 7d ea 49 3a
       -0.00056480995 -0.0004408973 -0.0018927951 0.0007702483
000290 e3 74 da b3 5d 30 35 3b 67 9b 4f b9 66 96 90 a7
       -1.01726776e-07 0.0027647235 -0.0001979895 -4.013109e-15
0002a0 91 da fa b9 3c 21 0c bb 25 8b 93 ba 8c fb a3 b8
       -0.0004784656 -0.0021382114 -0.0011256678 -7.8193e-05
0002b0 bc 71 01 ba 13 89 11 b8 df 12 9e bb 32 b1 38 bb
       -0.0004937907 -3.4698354e-05 -0.004824027 -0.0028181789
0002c0 da ed be b7 80 14 fd ba cc 64 d1 b2 ed 14 40 b7
       -2.2760523e-05 -0.0019308478 -2.437664e-08 -1.1448964e-05
0002d0 58 e0 6c ae 61 bd 07 b7 11 ac 4c b6 fb a6 9d af
       -5.3859445e-11 -8.09072e-06 -3.0498525e-06 -2.867678e-10
0002e0 7c f1 73 b7 b0 00 ac bb 46 2b 3f b8 26 48 41 bb
       -1.4540154e-05 -0.0052491054 -4.557825e-05 -0.0029492467
0002f0 00 4a 54 b8 4d 86 f0 ba ec 6f d4 ba e2 6c f9 b8
       -5.0613657e-05 -0.0018350572 -0.0016207672 -0.00011893526
000300 c6 c9 4f bb 11 d4 07 ba b7 8d b0 b8 70 3f 1d bb
       -0.003170596 -0.00051814417 -8.4187304e-05 -0.002399411
000310 ce fa 06 ba c0 9b bb b7 38 9e 71 3c 73 6c 95 b1
       -0.0005149067 -2.2364664e-05 0.014747195 -4.3488e-09
000320 cb 8e ed b4 2e da 39 ad 20 3c 14 b8 47 85 70 b4
       -4.4248586e-07 -1.0564478e-11 -3.5341945e-05 -2.2400228e-07
000330 8f 72 da b4 54 e1 1e b6 e8 49 77 b3 3b 12 a8 ba
       -4.0689017e-07 -2.3674993e-06 -5.7576386e-08 -0.0012822816
000340 47 6b 2b b8 d6 90 32 b4 12 f1 89 b6 20 a3 a2 bb
       -4.0869487e-05 -1.6630233e-07 -4.1109824e-06 -0.0049632937
000350 6a cf 36 bc 13 85 28 b5 2f 3d 98 b6 17 0b 9a b8
       -0.01115785 -6.2778525e-07 -4.5370757e-06 -7.345358e-05
000360 80 a0 cf b7 ba af 18 b1 9c e3 5d 3c 6c 4c 0c b3
       -2.4751062e-05 -2.22188e-09 0.013543036 -3.2665795e-08
000370 2f 29 da b8 32 dd 0d ba d7 4a 03 b9 c9 b1 dd b9
       -0.00010402721 -0.0005411684 -0.00012521014 -0.00042284865
000380 c9 fb 31 bb af b3 e9 3a a9 66 30 97 70 02 ea bb
       -0.0027158132 0.0017830039 -5.699824e-25 -0.007141404
000390 32 f2 00 b6 2a 37 a8 b8 00 5f aa ba 02 30 19 b8
       -1.9214463e-06 -8.0211394e-05 -0.0012998283 -3.6522753e-05
0003a0 d5 7d 89 3b 2e e0 9b ac d3 a4 6f 3b ff b5 a9 ba
       0.0041959086 -4.430254e-12 0.0036566749 -0.0012947916
0003b0 ee 34 9d aa f4 76 b0 b4 b1 43 e0 b5 50 11 59 b1
       -2.792553e-13 -3.2869104e-07 -1.6709001e-06 -3.1587497e-09
0003c0 f2 b1 aa b2 cb 4b 83 af 28 b4 68 ba 26 91 c2 b8
       -1.9871525e-08 -2.3882615e-10 -0.0008876943 -9.277677e-05
0003d0 1d f8 e9 39 e7 57 ca b4 64 5d 8f b3 5b 0d 92 b6
       0.00044626082 -3.768939e-07 -6.675944e-08 -4.352694e-06
0003e0 73 27 bf b8 2a 9f ae bb da a1 b6 b7 21 04 d7 b0
       -9.114938e-05 -0.0053290324 -2.1771459e-05 -1.5644482e-09
0003f0 24 fd 85 ba 91 f4 b0 b7 84 8f 6f af 75 6d 88 b8
       -0.0010222537 -2.109472e-05 -2.178791e-10 -6.505373e-05

layer2.weight f4 [128, 256]
000000 54 76 05 bc 50 e3 35 3a 6a b0 7d 3c ad ab e0 3a
       -0.008145887 0.0006938474 0.015483955 0.0017141007
000010 b8 f4 2b bc 54 e3 a2 3b 16 65 08 3b 7c aa 13 bc
       -0.010495357 0.0049709473 0.0020812205 -0.009012815
000020 38 da db b9 02 e4 d5 39 57 a6 14 ba 32 52 b6 b8
       -0.0004193352 0.00040796405 -0.00056705385 -8.693746e-05
000030 fe 08 5f 39 e0 a0 e7 3b 1d bd 1b bb 99 ce 08 3b
       0.00021270287 0.0070687383 -0.0023763843 0.0020875095
000040 90 c0 ab b9 f9 0c 9e bb 9b 9c 1b bc 1c 61 a7 3c
       -0.00032759132 -0.004823324 -0.009497787 0.020432048
000050 d8 e8 95 ba 0f 0f 61 39 db 32 02 ba 30 db 45 bd
       -0.0011437191 0.00021463282 -0.00049666845 -0.048304737
000060 ef 56 90 3b 60 07 9c 3c 93 93 3b bb 6d 6e 38 be
       0.0044048945 0.019046485 -0.0028621897 -0.18010874
000070 44 d9 04 3e 47 a6 29 3c 2f 9d 30 37 1c 9b 22 ba
       0.12973505 0.010354585 1.0527015e-05 -0.00062029227
000080 08 32 6b b9 95 bd 32 3c 10 ca a6 bc 72 d4 38 bb
       -0.00022429985 0.010909458 -0.020360023 -0.00282028
000090 c9 8b 9c b9 36 9e e8 3d 56 8d 70 3d d5 d4 58 37
       -0.00029858787 0.11358301 0.05872854 1.2924157e-05
0000a0 c9 49 98 3b 20 19 20 3b de f6 ba 3b 2c 2c 90 3b
       0.0046474678 0.0024429038 0.0057056984 0.004399797
0000b0 42 c3 cc 3a 13 f7 75 bc 3a 39 69 3c af 14 f8 3c
       0.0015622156 -0.01501252 0.014234835 0.0302833
0000c0 c6 f0 04 ba 15 ff 48 39 36 1c e2 b5 4c 71 e6 3b
       -0.00050712784 0.00019168512 -1.6846523e-06 0.007032549
0000d0 90 ac d5 3b 3e 0e 95 bc b6 93 27 b9 50 ba d9 3b
       0.006520815 -0.018195268 -0.00015981388 0.0066445246
0000e0 c5 89 45 38 cc d3 a5 38 cc 44 9f 3a 47 fc 32 bc
       4.7096768e-05 7.907263e-05 0.001215124 -0.010924405
0000f0 ea 7b a2 3a f3 40 c1 bb d6 03 5e ba 44 1a fc bb
       0.0012396548 -0.005897635 -0.00084691995 -0.007693561
000100 79 04 96 bc e7 b9 ce bd 52 69 93 bc 0c 83 92 3b
       -0.01831268 -0.10094052 -0.017994557 0.0044711884
000110 91 b3 77 39 df d6 c6 bc f1 67 6f bb 17 62 07 bb
       0.0002362265 -0.02427238 -0.003653046 -0.0020657831
000120 49 17 fc ac d5 9e d4 3b 5c cb 3e ba b7 85 63 bc
       -7.164856e-12 0.006488661 -0.0007278228 -0.013886861
000130 46 43 27 bd 18 56 e1 bc b7 80 20 bc 9c 28 ab bb
       -0.04083564 -0.027506873 -0.009796313 -0.005223347
000140 20 bd 7d b8 d5 b0 ae 3a 56 a5 05 be 40 e5 f3 3a
       -6.0496037e-05 0.0013327847 -0.13051352 0.001860775
000150 44 21 f4 bb 0a 19 ab 3b 24 e4 ef 27 33 44 13 bd
       -0.0074502546 0.0052214907 6.6583176e-15 -0.03595371
000160 b5 f7 36 bd ba eb 31 bb 0b da 7d ba 27 37 0f bc
       -0.044669826 -0.002714856 -0.0009683675 -0.008741177
000170 cf 93 09 ba 8b 8e 5a bd 44 58 cc 3b c4 86 32 b9
       -0.00052481605 -0.053358596 0.006236108 -0.00017025607
000180 9a 6a 4c 3c be 47 12 3d ff e7 5d b9 3e a6 56 3c
       0.012476588 0.03571295 -0.00021162628 0.013101159
000190 4d 68 d0 bb 80 e8 81 3c 0e 04 1d 3b ab 4f 61 ba
       -0.00636009 0.015857935 0.0023958716 -0.00085949403
0001a0 fd ef 8b bc 25 c3 f3 39 67 cb 00 80 c2 f4 52 b9
       -0.017082209 0.00046493966 -7.2967e-41 -0.0002011834
0001b0 04 35 11 3a 21 41 40 bc ff 96 20 3c f3 6c b7 b8
       0.0005539211 -0.011734278 0.009801625 -8.7464134e-05
0001c0 ad 66 db 39 93 24 c2 38 8f d6 8d bb cd 5f 94 3b
       0.00041847434 9.257453e-05 -0.004328556 0.004528022
0001d0 49 9a 7a 3a 42 27 1b bb f0 f3 67 39 b0 e0 8f ba
       0.00095597334 -0.0023674523 0.0002212075 -0.0010976996
0001e0 ff 69 b4 ba c6 e2 90 b9 b9 f3 43 be be 4b 59 39
       -0.00137645 -0.0002763478 -0.19135942 0.00020722949
0001f0 e0 fc 5f 3b fa a6 4e bb 03 88 ce bd 3d e7 32 3c
       0.0034177825 -0.0031532631 -0.10084536 0.010919389
000200 27 c3 25 39 ad 33 56 bc d7 a6 e0 3d 1b 68 08 b8
       0.00015808326 -0.013073844 0.10969322 -3.2521883e-05
000210 8b e5 59 3c 84 b2 86 25 19 27 7e 3b 92 03 b0 bb
       0.013299356 2.3366261e-16 0.0038780628 -0.0053715194
000220 0e dd 3b 30 18 3b b4 3b 44 5b 32 3e ad f8 b2 3b
       6.834434e-10 0.0055002086 0.17417628 0.0054617734
000230 3b fa 7c b8 d4 2f a9 3c 5d af 81 bb eb ec 38 ba
       -6.0314527e-05 0.020652689 -0.0039576725 -0.00070543465
000240 3f 11 95 3b 9d f5 01 3e 5d dc b3 3a a5 c3 d8 3b
       0.004549175 0.1269135 0.001372229 0.0066151195
000250 c7 eb d8 39 01 02 b9 bb 73 e5 d4 b8 e7 e5 6d bb
       0.00041374398 -0.005645991 -0.00010151686 -0.0036300363
000260 04 4d a8 b8 ff 58 fb 36 04 72 ce ba 16 0d 80 3a
       -8.0252095e-05 7.4907434e-06 -0.0015750532 0.0009769525
000270 64 b9 7e b7 87 06 49 3c bd 56 65 3c 87 15 2e 3c
       -1.5182744e-05 0.012269623 0.013997731 0.01062525
000280 23 a0 a0 3a 04 9a 91 3a 20 0f 5c bb d6 53 42 ba
       0.0012254756 0.0011108522 -0.003357835 -0.0007413005
000290 aa 66 87 bc fd 1d e6 3d b6 b9 18 bc 53 f6 9f 2e
       -0.016528446 0.112361886 -0.009321621 7.274239e-11
0002a0 8d 43 cb 39 43 84 95 3c e1 5a 34 bd 61 b6 c4 b5
       0.00038769507 0.018251544 -0.04403198 -1.4656217e-06
0002b0 fc a3 81 3b 22 9a 8c 3a 91 25 0e 3d 2e da 1e 3a
       0.003956316 0.0010727088 0.034703795 0.0006059733
0002c0 3c c1 e1 b9 cb f7 84 bc ee 63 0b 3b 84 23 db 3c
       -0.00043059315 -0.016231438 0.002126928 0.026750334
0002d0 73 d5 ba bb 27 00 8d 39 83 50 1e b8 1b 81 7e b9
       -0.0057017147 0.0002689373 -3.7745118e-05 -0.00024271423
0002e0 4c bf 59 3b 17 56 6a 3e 29 e8 bd b9 f9 3a b3 bc
       0.0033225594 0.22884403 -0.00036221862 -0.021878706
0002f0 bf f8 04 39 fb a4 91 3e 2b 62 78 bd 7f e5 9e 3b
       0.00012681166 0.28446183 -0.060640495 0.0048491354
000300 af b8 51 3d 23 c2 c9 3b 1f 6a 99 3c cb a3 aa 3a
       0.05120152 0.006157176 0.01872736 0.0013018785
000310 84 b9 ac b8 5a dd 5e bc 27 ec 4e bd 31 10 4e bc
       -8.236154e-05 -0.013602579 -0.05051818 -0.0125771025
000320 00 30 00 38 74 0a 2b ba c7 8d 1f 3a f1 29 d3 b9
       3.056228e-05 -0.000652469 0.0006086495 -0.00040276305
000330 e9 7b 10 b6 27 c1 de bb 59 41 d8 bb 4c 11 84 3b
       -2.1529797e-06 -0.006797928 -0.006599587 0.0040303823
000340 f2 e5 52 bb 7c 28 54 bc 04 36 85 b8 aa ab 6e bb
       -0.0032180515 -0.012949105 -6.3519954e-05 -0.0036418238
000350 f1 27 0b bc 38 3f 1e 3c 75 9a a5 bb 82 87 24 39
       -0.0084934095 0.009658627 -0.005053813 0.0001569074
000360 95 34 67 3d 10 c9 8f b7 b7 70 03 3d c9 ae 85 3c
       0.05644663 -1.7140555e-05 0.032089915 0.016318696
000370 b3 5b b4 3c d9 6e a5 bb 7e bc 83 3a 84 36 f3 ba
       0.022016382 -0.0050486145 0.0010050682 -0.0018555676
000380 c3 bd ec 3c 80 ad 1e 3d 85 c2 c9 2c 83 f2 b8 bd
       0.02889908 0.03873968 5.7343596e-12 -0.090306304
000390 8f 2e e8 ba 4e a1 b8 ba 2e ef f4 bb 31 44 db 39
       -0.0017714071 -0.0014086158 -0.0074748015 0.00041821742
0003a0 a9 d0 11 3e 5b 9e f3 bb 56 ef 02 bd a8 b8 83 39
       0.14239754 -0.007434649 -0.03196653 0.00025123847
0003b0 9f 6c 00 3b e8 87 2d 38 84 fe 54 3b 97 e3 c8 bb
       0.0019595993 4.1372987e-05 0.0032500336 -0.0061306464
0003c0 9f 41 bc bb 7d a4 10 2f f8 61 53 39 83 b9 f5 38
       -0.0057451273 1.3155162e-10 0.00020159024 0.000117170646
0003d0 c9 c2 06 bd ff dd f8 38 2a 92 92 3c 86 76 14 3c
       -0.032900605 0.000118669115 0.017891962 0.009061461
0003e0 1f db 26 3a 06 51 22 3e ee 88 14 bc f4 19 24 ba
       0.0006365049 0.1585122 -0.00906585 -0.0006259971
0003f0 d3 47 31 3b f7 0b bb ba 39 49 52 b2 04 5b 7c 3c
       0.0027050867 -0.0014270534 -1.2240258e-08 0.015402559

layer2.bias f4 [128]
000000 f4 e9 c2 bb 98 a0 46 bb b9 26 23 3d 36 8c 30 3d
       -0.0059482995 -0.0030308124 0.03983185 0.043102466
000010 4c 54 dc bb 44 76 17 3c 58 e1 58 3a 4d 22 c6 ba
       -0.006723916 0.009244505 0.0008273325 -0.0015116424
000020 a0 32 70 b1 e2 b8 2d 3d 60 14 20 3c 51 cc 88 3c
       -3.4953374e-09 0.042412646 0.009770483 0.016698988
000030 e2 0b 90 8f 01 e3 04 36 14 eb 29 3a 8d 99 06 3b
       -1.4204073e-29 1.9801666e-06 0.0006481868 0.00205383
000040 09 69 d8 3c f1 03 f5 af a6 d5 ec 3a 10 e4 59 12
       0.026417272 -4.456804e-10 0.0018069043 6.8754235e-28
000050 a8 64 67 3c b2 a5 91 3c 6f ae 98 3c a0 3a 9e 2f
       0.014123119 0.017779205 0.018637864 2.8781688e-10
000060 0b 1a 6b bb ce 95 f3 3b 43 59 a4 34 2e e8 00 00
       -0.0035873677 0.0074336296 3.0612327e-07 8.329e-41
000070 bd 58 02 bc 66 73 99 3b 94 19 02 bb 86 7a 82 3c
       -0.007955727 0.004682946 -0.0019851672 0.015927564
000080 d9 4b 06 00 0d a8 88 ad fd 6e 95 bb 7a e5 14 83
       5.78222e-40 -1.553604e-11 -0.00456035 -4.3756717e-37
000090 00 00 f1 3a 1c 32 43 39 9c 12 0b 3c e3 ae be 2e
       0.0018386841 0.00018615316 0.008488324 8.671266e-11
0000a0 1c 4d b0 bc 9e 9f 8c 3b 03 a9 43 3c fe 49 13 bc
       -0.021521144 0.004291489 0.011942151 -0.008989809
0000b0 b2 dd 0d 38 8f 16 1b 3c ca 6d b6 3b f1 f4 0b bb
       3.382349e-05 0.009465828 0.005567287 -0.0021355713
0000c0 f6 a9 29 b6 89 bc 5e a7 46 c8 40 3a 1f f2 32 3c
       -2.5281893e-06 -3.0910894e-15 0.0007354062 0.010921984
0000d0 b7 61 85 bb ae d9 40 36 62 f2 ef 35 3a c0 24 bb
       -0.0040704864 2.8736936e-06 1.787743e-06 -0.002513899
0000e0 6b 2d 7b 3b a5 21 00 39 ac 18 ef b8 18 f2 51 3c
       0.0038326632 0.00012219565 -0.000114010036 0.012814067
0000f0 26 f0 84 35 a4 08 cf b7 1b 89 14 39 16 30 cf bb
       9.904659e-07 -2.4680347e-05 0.00014165456 -0.006322871
000100 3b 76 43 af 52 44 75 3b aa 34 17 bb 92 b4 2d 0d
       -1.777715e-10 0.0037424755 -0.0023072162 5.3527094e-31
000110 18 c2 54 39 7c 8a ec a4 d8 49 bc 9d 23 15 cb 3c
       0.00020290201 -1.0258329e-16 -4.983954e-21 0.024790352
000120 0a 40 6c b8 da f4 03 80 74 3c 92 3b 57 55 61 3c
       -5.6326426e-05 -3.63343e-40 0.004462773 0.013753257
000130 d1 7e 07 3b 02 b1 c9 34 4b 3c 09 3d 6b b0 39 3c
       0.0020674954 3.7567958e-07 0.033504765 0.011333565
000140 85 b6 e7 3b 75 97 82 22 79 88 f2 3a 79 4f 54 3c
       0.0070713186 3.539693e-18 0.0018503807 0.012958401
000150 78 f4 3b bc a6 01 ab bb 8f 67 a3 3b 08 d9 df 39
       -0.01147186 -0.0052187024 0.0049867104 0.00042695575
000160 af 62 9b b9 f9 20 fc 36 56 f2 50 3c b8 07 89 3c
       -0.0002963743 7.5140238e-06 0.01275309 0.016727313
000170 75 4d d7 2a 9b b9 cd 3b a0 ee 03 3d 86 ec 1b a9
       3.824542e-13 0.0062782294 0.032209992 -3.4622065e-14
000180 e9 b3 09 38 53 da b4 3b 55 01 b8 3b a8 6e 2e 3d
       3.28309e-05 0.0055191903 0.005615393 0.042586
000190 68 d0 a7 3c 40 a8 82 3c 59 1e 3a 39 3e 99 19 b6
       0.020485118 0.015949368 0.00017749648 -2.2887975e-06
0001a0 1d 48 e8 b4 0e 6b 7d 3c b2 60 a5 3c 96 74 64 3b
       -4.3265837e-07 0.015467418 0.02018771 0.003485953
0001b0 95 be 46 3c 64 ef 3d b5 aa 66 4a b9 70 a9 08 1d
       0.012130399 -7.0756346e-07 -0.00019302467 1.8087047e-21
0001c0 c1 ef 73 3d 13 38 61 3b d9 4e f9 b6 33 e5 4c 39
       0.05955482 0.0034365698 -7.4299573e-06 0.0001954034
0001d0 83 1a d9 b9 10 a1 6b bb 1e 60 b6 34 ca d3 92 bb
       -0.00041409218 -0.0035954155 3.3970076e-07 -0.0044808136
0001e0 ff 4e 29 3c 3e 05 75 bb 1f 41 a2 3c 35 fc 92 b0
       0.010333776 -0.0037387158 0.019806443 -1.069458e-09
0001f0 3b 32 0f 3c d0 53 33 3b 4b a7 05 80 bc 06 9c b6
       0.008740003 0.0027363189 -5.19191e-40 -4.6499463e-06

layer3.weight f4 [64, 128]
000000 13 27 a4 bd f7 55 41 bc 25 56 57 bd 48 fa 28 3e
       -0.08015265 -0.011800281 -0.05257239 0.16501725
000010 a0 67 90 3c b3 3f 73 bd 7a bd 14 bd 30 79 0f ba
       0.017627537 -0.05938692 -0.03631351 -0.00054730754
000020 a5 9e 30 b1 75 8d c0 3c 69 7c 88 bc 69 3e 2e 3e
       -2.570155e-09 0.023504952 -0.016660886 0.17015995
000030 92 39 60 8e fe e9 c4 36 c7 01 82 3d 50 4d 8a bd
       -2.763785e-30 5.8684955e-06 0.06347995 -0.067530274
000040 1c 89 51 3d e7 c9 8d aa a3 40 a2 bd ce bb 0f 92
       0.05115615 -2.518673e-13 -0.07922485 -4.535433e-28
000050 83 9b 21 3d 14 c0 8d 3e b6 94 09 3d 48 31 f1 2f
       0.03945495 0.27685606 0.033589087 4.387266e-10
000060 e6 f0 41 bc ff b0 95 3d 2e 55 16 36 ce b5 02 80
       -0.01183722 0.0730915 2.2401323e-06 -2.4889e-40
000070 be 46 af bd 10 8c ad bc cb a3 8c bc 06 b3 5e bc
       -0.08558415 -0.021184951 -0.017167946 -0.013592487
000080 c3 9b 05 80 40 bd 90 32 95 d8 82 bd 68 96 85 82
       -5.15054e-40 1.6849867e-08 -0.06388966 -1.9628923e-37
000090 e4 1c d8 bc e4 fa 6b bc e3 14 f4 bd 12 8c 9f 2e
       -0.026380964 -0.014403079 -0.11918046 7.2553644e-11
0000a0 c3 eb 10 3e 66 67 85 3d 07 2e 47 3d b1 c2 f4 3d
       0.14152436 0.06513862 0.04862788 0.11951197
0000b0 5e 21 0b b8 77 30 29 bd 0c e5 f3 3d 69 0e aa bb
       -3.3171258e-05 -0.041305985 0.119089216 -0.005189706
0000c0 c3 72 c8 b6 bc 07 e5 a3 5a f1 a0 3a 3f 07 0c bd
       -5.9738245e-06 -2.4831505e-17 0.001227896 -0.034186598
0000d0 be 79 5d bc 68 e4 01 b5 fc ab 69 35 fe a4 94 3d
       -0.013517795 -4.838862e-07 8.7049534e-07 0.07258032
0000e0 6c 95 ff 3d bc 57 55 bd 6b d1 44 38 ac a5 c7 3d
       0.12479672 -0.052085623 4.6925077e-05 0.09748396
0000f0 64 95 c6 32 87 98 eb bb c9 6a 5b b9 ff f8 d4 bc
       2.3118169e-08 -0.0071898135 -0.00020925248 -0.025997637
000100 09 7f 1a af 13 07 0d bd 1e a3 1f bd 47 a0 ee 8d
       -1.405135e-10 -0.034430575 -0.03897392 -1.4706468e-30
000110 79 5d d0 3b bb b5 86 a6 49 91 8c 95 e4 29 b2 3c
       0.006358799 -9.347376e-16 -5.677477e-26 0.02174849
000120 c8 af 4b b8 da 0d 01 00 9f e5 ad 3b 60 1e 02 3d
       -4.856268e-05 9.6805e-41 0.005306914 0.03176725
000130 29 34 c9 bc 71 a6 7e b4 5f 37 69 bd e5 0e 14 3e
       -0.024561005 -2.3716144e-07 -0.05693757 0.14458807
000140 b1 ff e5 3c f0 88 d4 22 63 c8 99 3c 56 cd a7 bd
       0.028076025 5.7607703e-18 0.01877231 -0.081934616
000150 32 79 4a 3e 09 e7 cd bc d5 6e fa bc d1 c0 bc 3b
       0.19772795 -0.02513458 -0.030570427 0.00576029
000160 c3 b9 40 b9 74 c6 a4 b6 c6 17 71 bc 4b 04 b2 3d
       -0.00018379749 -4.910684e-06 -0.014715141 0.08692225
000170 01 37 f9 28 52 86 db bc c1 34 f9 bd 86 65 11 30
       2.7668407e-14 -0.026797447 -0.12168265 5.2894966e-10
000180 5f 22 d4 3b 59 54 c8 bc 84 16 c4 3b 5c b9 63 bc
       0.006473824 -0.024454283 0.0059841294 -0.013899174
000190 70 0a f3 bb b9 91 c7 3b ea d8 05 b8 60 9b 07 35
       -0.0074170157 0.0060903695 -3.1911688e-05 5.051752e-07
0001a0 51 0e 36 36 d6 14 c1 3d 34 ae 4c bd 3b 3b 8f 3d
       2.7128447e-06 0.09427802 -0.04997082 0.06993719
0001b0 98 d8 a7 bc 26 aa 1d 32 98 19 fc 38 fd 3d 53 9e
       -0.020489022 9.17729e-09 0.000120210636 -1.1183066e-20
0001c0 cb 91 4b bd db 53 25 3d 14 b8 68 36 c5 45 f9 38
       -0.049699586 0.040363174 3.4677842e-06 0.00011886241
0001d0 eb 5f 12 b9 50 8b 88 bc 10 d1 4b 33 c4 2f d2 bc
       -0.00013959377 -0.016667992 4.7454762e-08 -0.025657542
0001e0 67 56 dc bd b3 ff 84 bc 06 e6 00 3e f7 6b f1 b1
       -0.107586674 -0.016235208 0.12587747 -7.0262973e-09
0001f0 0e 80 1f bc f3 66 c8 3c 08 c9 03 00 91 1c 93 36
       -0.00973512 0.024463153 3.47623e-40 4.384267e-06
000200 14 30 c3 31 2a 03 a4 30 50 37 9c ac 7e 12 a8 b2
       5.680713e-09 1.193347e-09 -4.4399276e-12 -1.9566183e-08
000210 38 c0 87 b0 66 91 63 b0 1b 07 df af a6 36 31 31
       -9.877175e-10 -8.278874e-10 -4.0568512e-10 2.5787954e-09
000220 7b c9 28 27 5d 42 5a b2 8f c4 1a 30 08 66 5b b2
       2.3423906e-15 -1.2704359e-08 5.63042e-10 -1.2770677e-08
000230 c9 5c bc 83 c1 57 c8 37 b4 bc 1d b1 c1 9e 92 31
       -1.1070949e-36 2.3882722e-05 -2.2953772e-09 4.2672075e-09
000240 da 72 7d b1 4a 0b 84 8b f4 24 41 b1 68 b6 7d 89
       -3.688163e-09 -5.0861536e-32 -2.8106202e-09 -3.0539534e-33
000250 b5 71 5e b2 b8 01 9e b2 72 6d 01 b2 4d 9d 2b b2
       -1.2947955e-08 -1.8394402e-08 -7.533673e-09 -9.989276e-09
000260 11 78 d8 2e 18 48 9b b1 ac 9d a9 28 13 10 36 80
       9.843871e-11 -4.51929e-09 1.8831148e-14 -4.964883e-39
000270 59 4a e2 30 2c 7a 7b b1 18 80 b8 af c4 b0 90 b1
       1.6464795e-09 -3.6594754e-09 -3.356042e-10 -4.2110475e-09
000280 83 4b 39 80 3d b4 14 b2 78 90 ed 30 35 1a 59 80
       -5.261712e-39 -8.655715e-09 1.728508e-09 -8.18276e-39
000290 a5 b8 ba b0 27 14 e5 b1 b3 31 f9 af 98 4e b4 9e
       -1.358576e-09 -6.6670682e-09 -4.532815e-10 -1.9090747e-20
0002a0 f0 13 37 b2 d9 b1 e1 31 b3 6b 44 b2 23 5e eb b0
       -1.0656535e-08 6.568581e-09 -1.14331895e-08 -1.7125256e-09
0002b0 d8 bd 2b 2e ac 8d 76 30 6c 62 ee 31 7c 56 29 30
       3.9049514e-11 8.9695606e-10 6.937901e-09 6.1604744e-10
0002c0 1d c6 31 b1 f8 0f 77 9a d7 7b aa 2f e3 0e 80 b1
       -2.5869504e-09 -5.1091302e-23 3.1010813e-10 -3.7269827e-09
0002d0 6c 40 f5 2f e3 3d 7c 30 03 66 81 2c f0 fc e3 af
       4.4611015e-10 9.176501e-10 3.677726e-12 -4.1470782e-10
0002e0 d0 ac 54 31 6a 87 0b 30 00 ba ef 28 2e 4c 20 b2
       3.0948293e-09 5.076034e-10 2.6614995e-14 -9.330547e-09
0002f0 dc 67 81 a9 5f 56 37 b0 30 c2 82 b2 fe 21 a8 30
       -5.7467675e-14 -6.6697753e-10 -1.5222298e-08 1.223327e-09
000300 00 83 c8 24 cc d2 7c 30 39 c9 8d 30 88 ca 6e 00
       8.6958096e-17 9.1976626e-10 1.0316291e-09 1.0174559e-38
000310 e2 c7 a7 30 70 a4 82 9b f7 2d 3d 00 28 8d 12 b2
       1.2207659e-09 -2.161296e-22 5.618454e-39 -8.530414e-09
000320 90 62 aa 37 6f 33 46 00 50 ad 87 b1 c6 9b 72 b2
       2.0311476e-05 6.446936e-39 -3.9487205e-09 -1.4121673e-08
000330 2a 51 93 30 1a 13 44 b6 11 ea 31 b2 36 88 6c b1
       1.0718726e-09 -2.9217395e-06 -1.03559765e-08 -3.4419947e-09
000340 af 54 32 b2 6a c1 0e 14 3e 38 07 32 54 86 ef 31
       -1.03802185e-08 7.207312e-27 7.870822e-09 6.971087e-09
000350 32 66 e5 b0 1c c4 ac b1 c4 e5 d2 b1 05 4b 9d 30
       -1.6690989e-09 -5.028154e-09 -6.1379257e-09 1.1444575e-09
000360 2c 2b 35 2f 07 e6 c6 33 ce 8b 84 b0 b7 dd b7 b1
       1.6477192e-10 9.261935e-08 -9.643999e-10 -5.351207e-09
000370 4e cf 8c 0f f6 8e 53 b1 4c 79 e3 af 80 f5 1e 32
       1.3884917e-29 -3.0785805e-09 -4.1377246e-10 9.252631e-09
000380 3c e3 2d 30 d9 8f 05 b2 0a 8e 38 31 f7 46 8e b1
       6.3259953e-10 -7.774326e-09 2.6856264e-09 -4.1408117e-09
000390 a3 32 0b b1 dc 40 51 b2 6a 37 b8 2f 08 60 cc ab
       -2.0255946e-09 -1.21801484e-08 3.350878e-10 -1.4521726e-12
0003a0 bc 4a 31 31 71 e4 ab 30 70 0a d0 b0 5e 5c db 30
       2.5799372e-09 1.2506814e-09 -1.5136958e-09 1.59606e-09
0003b0 ba c2 9c b1 18 1c d4 23 ce da 18 2e c8 37 d4 12
       -4.5623354e-09 2.2996984e-17 3.4755136e-11 1.3392832e-27
0003c0 b0 08 fb af bf 58 92 b1 86 57 7b 2e 18 e6 57 37
       -4.5662807e-10 -4.2592485e-09 5.714853e-11 1.28685715e-05
0003d0 14 8f ba b5 5b 1f bf 32 aa ba d0 a3 65 b2 92 b2
       -1.3899721e-06 2.2249585e-08 -2.263046e-17 -1.7077761e-08
0003e0 7c fa 25 31 31 85 aa 32 46 c8 b9 b2 e6 09 90 a5
       2.4153044e-09 1.9851173e-08 -2.1627908e-08 -2.4986725e-16
0003f0 9d 30 05 30 8f 3c 81 b1 a4 0a 04 80 30 f9 6c a6
       4.84542e-10 -3.761279e-09 -3.71159e-40 -8.221666e-16

layer3.bias f4 [64]
000000 99 b5 b4 3b 9a fd 6e b1 90 8b 93 3d f3 86 b8 3c
       0.005514812 -3.4777714e-09 0.07204354 0.022525286
000010 6b 5d aa 33 ef dc b9 3c 36 b1 cb 3c 48 73 72 35
       7.9332345e-08 0.022688357 0.024864774 9.031978e-07
000020 2f d5 7c 3c 93 de 22 3d fc 85 8c 3b 5b c8 b3 3c
       0.015431686 0.039763045 0.004288433 0.021946123
000030 2e 16 95 3b ca 68 64 39 de e6 56 b7 0a cd c0 36
       0.004549763 0.00021782811 -1.2809147e-05 5.7459156e-06
000040 56 ed 5b b9 7a 95 91 3c bc 9f 12 3d 76 a5 c5 b6
       -0.00020973882 0.017771471 0.035796866 -5.8903197e-06
000050 f5 08 5c a0 cf b1 d7 3b 40 50 1a 3d 96 74 d2 b2
       -1.8637688e-19 0.0065824757 0.03767419 -2.4500235e-08
000060 92 0d be bb 6a 09 26 3d 19 0b 90 3c 5c 36 11 3c
       -0.0057999576 0.04053632 0.017583417 0.008863058
000070 31 56 35 b5 30 32 35 bb 12 9c 87 b7 02 ea 3e 3d
       -6.755318e-07 -0.0027648322 -1.616593e-05 0.046609886
000080 3f e8 eb 3b ad 00 a3 a8 1a 21 25 3c 54 5a 46 ba
       0.0071993168 -1.8096928e-14 0.010078693 -0.00075665605
000090 8c 68 c4 38 d8 38 8a 3c 37 97 c6 3c eb a6 05 bc
       9.365482e-05 0.016872808 0.024242027 -0.008157472
0000a0 8f ce 18 3c d0 23 ba 3b 27 eb cc 3b 3e c1 e9 3c
       0.009326591 0.0056805387 0.0062536183 0.028534528
0000b0 18 bf 94 3b b9 0d 1f 3c 2e 57 1c b8 91 90 e6 b8
       0.0045393817 0.009707862 -3.727449e-05 -0.00010994182
0000c0 54 46 9b 87 78 95 c1 3c b4 d2 a9 ba 9b 29 b2 3c
       -2.3363143e-34 0.023630843 -0.0012956471 0.021748355
0000d0 5d 66 2e 3b d6 41 e0 35 31 d5 a0 3c 58 fd 45 3d
       0.0026611306 1.6708461e-06 0.019632908 0.04833731
0000e0 34 11 81 3c 18 3a ee 3c 60 41 ea 39 26 e6 0d 3d
       0.015755273 0.029080436 0.00044680666 0.034643315
0000f0 14 fb 2f 3c 67 94 47 2a ab 77 0c 3c f4 99 5e b9
       0.010741014 1.7726238e-13 0.008573453 -0.00021228922

layer4.weight f4 [10, 64]
000000 c6 4b dd bd 36 85 73 31 f9 e4 2c be a6 0a 3d 3e
       -0.10805468 3.5436876e-09 -0.16884221 0.18461093
000010 bc 29 4e b3 c1 5b 8b bd d1 1a 30 be 32 8b ec 35
       -4.800107e-08 -0.0680461 -0.1719773 1.7623881e-06
000020 be 5b bb ba 18 26 e3 3a 44 2f c4 bc 2b 73 84 ba
       -0.0014294309 0.0017330078 -0.02394832 -0.0010105124
000030 05 9c 80 bc b1 67 21 bd db 88 83 b7 e4 41 bc 37
       -0.015699396 -0.03940553 -1.5680145e-05 2.244203e-05
000040 0f b6 b8 bc 89 6d c6 3e 29 19 4c 3f f8 d3 2a b4
       -0.02254775 0.38755444 0.7972589 -1.5909598e-07
000050 9f c8 6e a2 3b e8 1b be d2 fc 17 bd ec ef c7 2f
       -3.2361223e-18 -0.15225308 -0.037106343 3.6368364e-10
000060 8a 8d b3 bd 93 56 fe bd 6c a3 dd bd d7 b0 57 bd
       -0.08767231 -0.124188565 -0.10822186 -0.052658882
000070 e3 03 88 b4 69 33 87 3c c1 e3 03 37 ea 94 4d be
       -2.5334802e-07 0.016504006 7.861237e-06 -0.20076337
000080 00 34 98 bb aa 83 95 9e 6d 80 cd bd e6 39 39 bd
       -0.0046448708 -1.5830444e-20 -0.10034261 -0.045221232
000090 7b e4 05 bd 24 72 cc bd b0 d9 1d 3d 31 f0 f6 bd
       -0.0326886 -0.09982708 0.03853768 -0.120575316
0000a0 cd eb b7 3e 98 ae e8 bd e9 49 fa 3b d4 29 25 3e
       0.3592209 -0.11361426 0.0076382053 0.16129237
0000b0 af 2b ac 3c 2c 5d 81 3e 4c 82 2b b9 2d ce 01 bb
       0.021016924 0.25266397 -0.0001635637 -0.0019806728
0000c0 58 60 f9 2b 08 df 34 be 8c 38 c7 bd 8c b2 78 bd
       1.7719255e-12 -0.17663205 -0.09727582 -0.06071715
0000d0 7d a5 3b bd ab f8 a6 b7 8b 50 b9 bd bd b0 16 bb
       -0.04581212 -1.9904537e-05 -0.090485655 -0.0022993528
0000e0 04 67 71 3d 85 af a4 bc 6e 39 d4 bc af b1 66 3e
       0.058936134 -0.020103225 -0.02590629 0.22528718
0000f0 e0 ea a4 bd 6c 0b 33 33 a7 ae 23 be 3f a9 62 3a
       -0.08052611 4.1687073e-08 -0.15984593 0.00086464355
000100 f3 4a e5 bd 11 bc 0e 33 c5 d5 05 3e d8 d4 c5 bd
       -0.11195936 3.3232997e-08 0.13069828 -0.09659737
000110 46 53 34 35 fb 37 c4 bd ab d4 ce 3e 40 6a 0d 36
       6.7176404e-07 -0.0958099 0.40396628 2.1072483e-06
000120 1c ad 94 bd e8 61 ec bd a5 1f ce 3e 5c 51 5c 39
       -0.072595805 -0.11542112 0.40258518 0.00021011144
000130 b7 56 ea 3e 62 25 03 bd 0a 09 ee b6 a9 cd e8 b7
       0.45769283 -0.032018073 -7.094005e-06 -2.7752323e-05
000140 7a 93 ba bc 30 6b 35 bd 1d be cf bd c2 a2 7c b5
       -0.0227754 -0.044291675 -0.10143683 -9.411416e-07
000150 79 44 9a 20 31 e7 cf bd 53 c6 35 be d6 9d b8 b3
       2.6133926e-19 -0.10151518 -0.17751436 -8.596878e-08
000160 18 ac 16 bd b8 57 da bd a0 13 eb bd 54 eb 8d 3e
       -0.036785215 -0.10661262 -0.114783525 0.27718604
000170 08 80 cd b5 14 78 e0 3e 7f aa 12 b8 16 fc e9 3d
       -1.5310952e-06 0.43841612 -3.49679e-05 0.11425035
000180 c3 c0 11 3c 81 f8 d9 9d f0 a1 9d 3e 1e b9 de bc
       0.008896056 -5.769637e-21 0.3078761 -0.02718788
000190 b3 ba ae bd db 2f 71 3e ca fe e6 bd 38 cc 56 bd
       -0.08531704 0.23553412 -0.11279066 -0.052440852
0001a0 5b 7e 9f bc da cd b2 bd 7c 61 eb bc f6 b1 38 be
       -0.01946943 -0.08730669 -0.028733008 -0.18036637
0001b0 c9 8b 56 bd 44 98 0b bd da ae 8e 39 97 bb d5 ba
       -0.052379403 -0.03408076 0.00027214625 -0.0016306516
0001c0 c1 7f 03 00 9e 51 4c be 05 90 cb bd 22 f3 c9 bd
       3.21336e-40 -0.1995301 -0.09939579 -0.09860827
0001d0 e2 76 32 3e 5b e3 c6 37 7f 81 11 3e 0d 66 79 be
       0.17428163 2.370931e-05 0.14209555 -0.24355336
0001e0 79 a6 33 be 7e 5a 66 3e e3 98 b2 bc fa 0a 5e be
       -0.17543973 0.22495458 -0.021801418 -0.21683875
0001f0 1f a5 db bc 8b 47 11 29 8a 1d e5 bd 65 f2 15 bb
       -0.026812134 3.225852e-14 -0.11187275 -0.0022880074
000200 bf 58 ea 3e 4c 12 af 31 e6 7a d4 3e df ee 55 bd
       0.45770833 5.0952504e-09 0.41500014 -0.05222976
000210 2d 2a e0 b4 62 da c6 bd 7c 9e 48 be 6c 4e 69 b5
       -4.1753938e-07 -0.09709622 -0.19591707 -8.691338e-07
000220 03 a2 14 bd c0 a5 b0 bd 63 a3 b0 3d 77 d2 9f bb
       -0.03628732 -0.08625364 0.086249135 -0.0048773843
000230 8e 2f 74 3d 44 4d 95 bd 10 83 18 37 9f ff 72 b7
       0.059615664 -0.07290128 9.090421e-06 -1.44838405e-05
000240 17 61 4c bd ad 73 04 be ae 09 8b 3e 37 7a 09 37
       -0.04989728 -0.12934752 0.27155823 8.194292e-06
000250 36 d7 fe a0 a1 48 c1 3e 48 aa f5 bd 9f a8 6a 32
       -4.3171688e-19 0.37750724 -0.11995369 1.3658933e-08
000260 2b e4 cb bd 0c 54 17 be 10 70 f5 bd 33 2b 22 be
       -0.09955629 -0.14778155 -0.11984265 -0.15836792
000270 59 a3 10 35 6e 17 27 bd 4e 0c 33 b7 f7 06 91 be
       5.388188e-07 -0.04079383 -1.0672096e-05 -0.28325626
000280 b0 17 dd ba c4 a4 2e 9e e4 a9 a5 bd b5 48 31 bd
       -0.0016868021 -9.245556e-21 -0.08089045 -0.04328223
000290 e7 0c c2 bc 37 bc 80 be 03 df 83 bd dc fd 14 be
       -0.023687793 -0.25143597 -0.064390205 -0.14549965
0002a0 a5 e5 ac bd 6c 72 a9 3e 8e 74 53 bc 1b ed c8 3c
       -0.08442239 0.3309511 -0.012906207 0.024527123
0002b0 79 49 16 3e 5a 2b cf bd 3e 93 88 38 cb 3f 17 3c
       0.14676465 -0.101156905 6.512411e-05 0.009231518
0002c0 ad 70 44 0d ba 56 b2 3c 80 88 f5 3e 2f 74 c0 bd
       6.053279e-31 0.02176987 0.47955704 -0.0939716
0002d0 37 fb 34 3e 47 f7 d6 37 c9 86 4d be 2e 65 c7 bc
       0.17673956 2.5625935e-05 -0.20070948 -0.024340238
0002e0 79 a0 c9 3e 58 8a 11 be 75 c3 43 bd 6c 0d a9 be
       0.39380243 -0.1421293 -0.047793824 -0.33018053
0002f0 cd 5f 03 be 10 77 ef 2c fa a2 c3 3e 5a 4d dc b9
       -0.12829514 6.806007e-12 0.3821028 -0.000420193
000300 2c 11 15 be 1f 81 ee b0 07 99 01 3e 00 98 bf bd
       -0.14557332 -1.7353478e-09 0.12656032 -0.093551636
000310 5f 77 87 b5 49 f5 ac 3d 0c 4e c3 bd 3b c3 8d b5
       -1.0093025e-06 0.08445222 -0.09536371 -1.0562138e-06
000320 fb ce 4d bd 92 bd f2 bd 40 23 4a be 13 f0 95 bd
       -0.05024622 -0.11852564 -0.1974001 -0.07321181
000330 ce d7 59 be 88 d7 6b 3b 3c 77 d5 37 a6 47 0a b4
       -0.21273729 0.003598662 2.5447102e-05 -1.2878317e-07
000340 bc 95 51 bd 5c d8 21 be 09 99 20 be eb 2e 97 b7
       -0.05116819 -0.15805191 -0.15683378 -1.802245e-05
000350 00 7d 3f 1b df d9 de 3e 61 9c 27 be 23 fc 1a b4
       1.583954e-22 0.43525597 -0.16368248 -1.4434094e-07
000360 15 88 b7 bd 12 2b 81 be ad ac 90 3e a8 51 3b 3e
       -0.089615025 -0.25228173 0.2825674 0.18292868
000370 77 8c ea b4 04 5f 18 be 86 c5 c6 b5 a9 ea 84 3e
       -4.3688098e-07 -0.14879996 -1.4809636e-06 0.25960281
000380 ff 46 d0 bc a0 70 01 ae 99 d2 b1 bd 0b 28 98 bc
       -0.025424479 -2.9431235e-11 -0.086827464 -0.018573781
000390 24 2c d6 3b 79 b9 03 3f 8f d0 67 bd d3 e6 fc bd
       0.0065360237 0.51454884 -0.05659538 -0.12348714
0003a0 a7 44 a3 bc 45 95 e6 bd 75 2c 55 ba 30 9e f8 bd
       -0.019930197 -0.1125894 -0.000813193 -0.12139547
0003b0 6b 25 0f 3e 13 19 9b bb 33 3b 0c b9 a8 61 05 3c
       0.13979118 -0.0047332137 -0.00013373494 0.008140959
0003c0 37 15 19 1e 24 bc 20 be 88 60 16 be a3 2a 68 3e
       8.10414e-21 -0.1569677 -0.14685261 0.22672515
0003d0 08 77 fc bd a2 08 f2 b8 47 21 b1 3e 1f 00 9c 3c
       -0.12327391 -0.00011541067 0.345957 0.019043026
0003e0 fb 65 00 3f 29 cc 3e be d7 70 17 bd de c8 d5 be
       0.5015561 -0.18632568 -0.036972847 -0.41754812
0003f0 6f cd d2 3e d6 70 51 a8 f1 9c 0b be 7c d1 e4 3a
       0.41172358 -1.1626298e-14 -0.13634087 0.0017457451

layer4.bias f4 [10]
000000 4e 2e ad 3c 18 a5 23 bb b4 b8 6b bc ce 87 03 3c
       0.021140244 -0.002497023 -0.014387298 0.008027984
000010 9d cd ab bc 45 33 53 bc 30 59 ab bc 32 82 84 bc
       -0.020972067 -0.012890642 -0.020916551 -0.016175363
000020 08 36 7c 3d c2 d1 7d 3b
       0.061574966 0.0038729762
